…
       requires_grad=True)
Parameter containing:
tensor([ 0.0022, -0.0526,  0.0420, -0.0657,  0.0108,  0.0127,  0.0403,  0.0294,
         0.0384, -0.0701], requires_grad=True)


# Common Layer Types - Linear Layers
Input:
tensor([[0.5519, 0.5866, 0.5356]])


Weight and Bias parameters:
Parameter containing:
tensor([[-0.1982,  0.4837, -0.2419],
        [-0.5117,  0.4004, -0.1725]], requires_grad=True)
Parameter containing:
tensor([-0.3837, -0.5703], requires_grad=True)


Output:
tensor([[-0.3388, -0.7103]], grad_fn=<AddmmBackward0>)


# Common Layer Types - Convolutional Layers (LeNet5)
The LeNet5:
LeNet(
  (conv1): Conv2d(1, 6, kernel_size=(5, 5), stride=(1, 1))
  (conv2): Conv2d(6, 16, kernel_size=(3, 3), stride=(1, 1))
  (fc1): Linear(in_features=576, out_features=120, bias=True)
  (fc2): Linear(in_features=120, out_features=84, bias=True)
  (fc3): Linear(in_features=84, out_features=10, bias=True)
)


# Common Layer Types - Recurrent Layers (RNN)
The LSTM:
LSTMTagger(
  (word_embeddings): Embedding(100, 10)
  (lstm): LSTM(10, 10)
  (hidden2tag): Linear(in_features=10, out_features=1, bias=True)
)


# Common Layer Types - Transformer
TransformerModel(
  (pos_encoder): PositionalEncoding(
    (dropout): Dropout(p=0.2, inplace=False)
  )
  (transformer_encoder): TransformerEncoder(
    (layers): ModuleList(
      (0): TransformerEncoderLayer(
        (self_attn): MultiheadAttention(
          (out_proj): NonDynamicallyQuantizableLinear(in_features=200, out_features=200, bias=True)
        )
        (linear1): Linear(in_features=200, out_features=200, bias=True)
        (dropout): Dropout(p=0.2, inplace=False)
        (linear2): Linear(in_features=200, out_features=200, bias=True)
        (norm1): LayerNorm((200,), eps=1e-05, elementwise_affine=True)
        (norm2): LayerNorm((200,), eps=1e-05, elementwise_affine=True)
        (dropout1): Dropout(p=0.2, inplace=False)
        (dropout2): Dropout(p=0.2, inplace=False)
      )
      (1): TransformerEncoderLayer(
        (self_attn): MultiheadAttention(
          (out_proj): NonDynamicallyQuantizableLinear(in_features=200, out_features=200, bias=True)
        )
        (linear1): Linear(in_features=200, out_features=200, bias=True)
        (dropout): Dropout(p=0.2, inplace=False)
        (linear2): Linear(in_features=200, out_features=200, bias=True)
        (norm1): LayerNorm((200,), eps=1e-05, elementwise_affine=True)
        (norm2): LayerNorm((200,), eps=1e-05, elementwise_affine=True)
        (dropout1): Dropout(p=0.2, inplace=False)
        (dropout2): Dropout(p=0.2, inplace=False)
      )
    )
  )
  (encoder): Embedding(1000, 200)
  (decoder): Linear(in_features=200, out_features=1000, bias=True)
)
